lstm/models/model_LS/last.pth (torch, 518039 bytes, 11 tensors)

lstm.weight_ih_l0 f4 [400, 5]
000000 c4 0b a2 bd 7d 2f 55 3d 59 1b 98 3d d1 9c e9 bc
       -0.079124 0.05204724 0.07427091 -0.028517159
000010 3b bc 6b 3d 6f 66 85 bc ac e3 18 bd 92 f2 14 3d
       0.057552557 -0.016284196 -0.0373265 0.036364146
000020 59 12 6e bd 7a 30 ee 3d d3 62 42 3e c9 4b 32 3e
       -0.058122966 0.1163034 0.18983011 0.17411722
000030 5a 0a 48 3d 5a 99 0f 3d f9 cf d5 3b fb 9a fa bd
       0.048837997 0.035058357 0.0065250364 -0.122365914
000040 8b 40 29 3c 3e dc 2a be 77 46 b7 bd 8c 34 29 bb
       0.01033033 -0.16685578 -0.08948987 -0.0025818674
000050 67 32 8a bc be b2 49 3d a3 3c af 3d 46 5f 0f 3d
       -0.016869737 0.049242727 0.085564874 0.03500297
000060 05 1d 2c 3e 93 77 48 bd d5 fa 51 3d 22 3b 7a bb
       0.16807945 -0.04894216 0.051264603 -0.0038182219
000070 99 6a d4 3d e1 d4 a4 bd 0e fc 80 bd 2c 04 58 bd
       0.103718944 -0.08048416 -0.062980756 -0.052738354
000080 16 8a c8 bd 5a 91 11 3d 0f 69 b2 3d 1c 10 1f 3d
       -0.09791963 0.03553901 0.087114446 0.038833722
000090 85 78 dd 3d 2c e3 46 3d 68 c5 31 3e c0 c6 9a bd
       0.10814003 0.04855649 0.17360461 -0.0755744
0000a0 39 3b ad bd ac 66 1b be de 2b b1 bd e6 8f c6 bd
       -0.084585615 -0.15175885 -0.08650945 -0.09695415
0000b0 74 f2 f1 3b 51 91 2e bd 3f 1d 0e 3b 06 c1 ab bd
       0.007383639 -0.042619053 0.0021684912 -0.08386426
0000c0 83 b2 21 bd 86 ff 36 3e 5c 31 2a 3e e0 d7 fa 3d
       -0.039476883 0.17870912 0.16620392 0.12248206
0000d0 6a 81 1b 3e 37 aa f4 3d 26 df 63 bd 24 03 b5 3d
       0.15186086 0.119465284 -0.055632733 0.0883849
0000e0 7f 02 73 3d b4 c3 14 3e f3 87 ac 3c fd 7f 52 bc
       0.059328552 0.1452778 0.02106092 -0.012847898
0000f0 0d 7a 0a 3e ea 28 f6 3c 5e a8 b2 3c 22 aa d0 3d
       0.13523121 0.030048806 0.0218088 0.101887
000100 3f c3 68 3c 2d c2 60 3d 91 1c 18 3d c3 f1 8e bd
       0.014206707 0.05487268 0.037136618 -0.06979706
000110 40 3c d6 3b bc 4d ef bd b6 0e df 3d 19 ca f5 3d
       0.006537944 -0.116847485 0.10891478 0.12001438
000120 0c d5 e4 3d 44 02 a4 bc e7 50 dd 3c 7f ad 89 3d
       0.11173448 -0.020020612 0.027016116 0.06722545
000130 25 18 f1 3d 08 3d c9 3d c6 2b 82 3d e3 c4 55 3d
       0.11772183 0.09826094 0.06356005 0.05218972
000140 34 0e e1 3d 41 4d 32 3d d2 29 a9 3c fc 06 12 3d
       0.10989037 0.043530706 0.020649824 0.035651192
000150 66 34 2b 3b c8 9c 2c 3d 5b 46 ad 3d 34 28 84 3d
       0.0026123761 0.042141706 0.08460685 0.06452981
000160 05 76 48 bc 3c 9b 9c 3c b0 fe a7 bc 2f 68 ff bd
       -0.012235169 0.01911699 -0.020507187 -0.12471043
000170 88 04 cc bd 01 ef 8a bc 5f 8a 45 3d 72 2b 22 3c
       -0.09961802 -0.016959669 0.048227664 0.0098980535
000180 2f b4 a2 bc 7c fb f1 3d c2 39 81 3d ba d1 01 3e
       -0.019861309 0.11815545 0.063098446 0.1267766
000190 2f d7 b0 3d 4f 42 3c 3c f6 27 a8 3a 01 4b d5 3d
       0.08634793 0.011490419 0.0012829292 0.104146965
0001a0 a4 82 ff bc 5a 27 68 3d ef 48 95 3d 19 2a 57 3d
       -0.031190224 0.056678154 0.072893016 0.05253038
0001b0 14 9c 69 3d fb 82 1d 3e f7 b4 14 3d 3c df 8d bc
       0.057033613 0.15381996 0.036305394 -0.01731836
0001c0 dc 12 d9 bc 39 b5 ec bd a4 87 4d 3e d8 f4 a3 bd
       -0.02649825 -0.11558003 0.20071274 -0.080056846
0001d0 da 8e be 3c 9a 77 81 3c 60 ef df bd ca 98 28 bd
       0.023261476 0.0158041 -0.10934329 -0.041161336
0001e0 a0 91 17 3d 03 10 3e bd c6 ad 1b 3d 36 24 d9 bd
       0.037004113 -0.04640199 0.03800752 -0.1060261
0001f0 cb 82 1b bc e2 f4 b8 3d d3 ba 25 3d fa 93 8e 3d
       -0.009491633 0.09031083 0.040461373 0.06961818
000200 1c cf d7 bc e5 a4 03 3d bc bb 3c bd 54 5d c0 bc
       -0.026343875 0.032139678 -0.046077475 -0.023482002
000210 45 e8 92 bc da 74 a8 bc f4 78 4e 3e e0 34 d5 bd
       -0.01793302 -0.020563532 0.20163327 -0.10410476
000220 89 0c 8e 3a fa eb 17 be dd 62 ee bc eb 02 dd 3c
       0.0010837476 -0.14836112 -0.029099876 0.02697893
000230 3c 7b 96 bd c7 56 6e ba f8 96 4b bd 41 ce 99 3c
       -0.07347724 -0.00090919103 -0.049704522 0.018775107
000240 70 00 82 bd cf fe 47 3d 34 93 03 be 22 0b 79 bd
       -0.0634774 0.04882699 -0.12849122 -0.060801633
000250 ad 2f 1b bd 23 20 0c 3e 27 eb 2f be a3 88 b6 bc
       -0.037887264 0.13684134 -0.17179547 -0.02228195
000260 5c d9 85 39 0b 72 35 be 3c ec 2a bd 77 d6 8e 3d
       0.00025529682 -0.17719285 -0.041729197 0.069745
000270 f6 35 21 3c ce 4d bb bd 18 3c 1a 3d 2a e9 41 3d
       0.009839525 -0.091456994 0.037654966 0.047341503
000280 ee 6b 05 3e 45 de 15 3d 03 72 61 3d 67 50 19 3e
       0.13029453 0.036588926 0.05504037 0.14972077
000290 5a a5 b6 bd f2 e8 20 3e bc 23 13 3e fc e8 12 3e
       -0.08918257 0.15713862 0.143691 0.14346689
0002a0 8f 89 5f 3d d2 99 6a 3c da f8 e7 3c c3 fd c6 bb
       0.054574545 0.0143189 0.028316904 -0.006072731
0002b0 c2 51 63 bd 39 8a fc bc 1a 81 ac 3d 0f b0 3e 3b
       -0.055497892 -0.030827628 0.08423062 0.0029096638
0002c0 ba 6c dd bd 4f 65 f3 bd 62 19 55 3d 33 80 2a 3d
       -0.108117536 -0.118845575 0.05202616 0.041626167
0002d0 4d 7d 39 bc 90 8b 33 3d 36 93 af 3c 4c 00 10 bd
       -0.011321378 0.04383427 0.0214325 -0.035156533
0002e0 92 b2 16 3e 47 d9 44 bb a1 3a b5 bd f6 a3 d3 bd
       0.14716557 -0.0030036734 -0.08849073 -0.103340074
0002f0 e8 09 d7 bd 8f 70 d9 bd 6c 6c 60 bd 7e 87 8d bd
       -0.10499936 -0.10617172 -0.0547909 -0.06910609
000300 86 f9 30 3d 37 c6 b3 bd a6 ef 0a 3e 58 0f 78 3d
       0.043206714 -0.08778041 0.13567981 0.060561508
000310 44 a7 4c 3d d1 f6 bb 3d 0b 1f c7 3d 5f c5 8f 3c
       0.049964204 0.09177936 0.09722718 0.017550169
000320 1c 68 a9 bd 9c 62 98 bd 7a 08 b2 3c 5c 97 94 3d
       -0.082718104 -0.07440683 0.021732558 0.07255432
000330 70 70 80 bd 84 24 a4 3c 29 c0 19 be e8 f8 31 bd
       -0.06271446 0.020036943 -0.1501471 -0.043450266
000340 bb d1 e7 bd b0 72 cf bb e2 65 c4 bd 08 03 dd bd
       -0.113193 -0.0063308105 -0.09589745 -0.10791594
000350 e9 c2 a7 bc 45 06 1c 3d 4a 02 00 3e cb 94 8e 3d
       -0.020478683 0.038091917 0.12500873 0.06961974
000360 d2 36 b0 bc 11 9f 90 bd ad 96 cc bd 5a 17 11 3e
       -0.021510515 -0.070615895 -0.099896766 0.14169064
000370 cf 79 27 3e 32 16 e7 3d 1c 92 2f 3e 6f c4 4a 3d
       0.1635506 0.1128353 0.1714558 0.04950374
000380 4c 3f 92 3c 0b 72 74 bd b4 51 1e bd 79 71 e1 bc
       0.017852448 -0.059679072 -0.038652137 -0.027519928
000390 a1 fe 3b bd b9 27 68 3e 96 44 d4 bd 21 f3 72 bc
       -0.04589713 0.22671403 -0.10364644 -0.014828474
0003a0 ad 0a f6 bd cc 45 10 bd 8b bc 60 3c 1f f4 03 3d
       -0.12013755 -0.035222813 0.013716827 0.032215234
0003b0 46 e4 82 3d f8 61 10 3d ab c3 31 3e 93 12 8c 3d
       0.06391196 0.03524968 0.17359798 0.0683948
0003c0 6c ae 90 bd 33 3f 57 be 32 75 4a be 44 14 27 be
       -0.07064518 -0.21020202 -0.19771269 -0.16316324
0003d0 19 e1 61 3e 1b c1 ac 3d 1a 39 d6 3b 87 9f d7 bc
       0.22058524 0.084352694 0.0065375688 -0.026321186
0003e0 4d 33 ef 3c 5e d8 d2 bd 19 03 d0 bd 14 ff d1 bc
       0.029199267 -0.10295175 -0.10156841 -0.025634326
0003f0 fa 4d 94 3c 23 4c 3b 3c 3d a9 b3 3d ba c6 49 bd
       0.018103588 0.011431727 0.08772514 -0.049261786

lstm.weight_hh_l0 f4 [400, 100]
000000 af ca ab bc 20 94 13 3d 35 12 45 3d 17 1c 70 bd
       -0.02097067 0.036029935 0.048113067 -0.05862054
000010 44 96 91 3d 85 82 23 3d cb ae ce 3c 45 83 2a 3d
       0.07108739 0.039919395 0.025229832 0.041629095
000020 c3 53 85 bd f5 17 70 3d 3f 00 85 3d 6c 2d 52 bd
       -0.06510117 0.058616597 0.064941876 -0.05131285
000030 c3 de fa bd ad c5 8d 3d 99 82 4b bd b2 48 f5 bd
       -0.1224952 0.06922469 -0.049685095 -0.11976756
000040 24 a8 c7 bd 72 58 29 bd a8 19 2d 3d 7c 89 51 bc
       -0.09748867 -0.041344114 0.042260796 -0.0127891265
000050 f4 4d 8f bd 73 d6 1f 3d b5 41 12 bc 28 47 23 3b
       -0.0699729 0.039022874 -0.008926799 0.0024914239
000060 50 d3 5c 3d 5a 46 e4 3b ff 89 5e bd d9 47 e0 bc
       0.05391246 0.0069663944 -0.054330822 -0.02737801
000070 1e 95 3d 3d 31 c0 40 bd 08 ec ba 3d af a8 a8 3d
       0.046284787 -0.047058288 0.09127051 0.08235299
000080 68 44 fe 3d 52 e0 4c bc ae 1a 03 bd 8c f2 83 bd
       0.12415391 -0.012504654 -0.032007866 -0.064427465
000090 98 a1 9b 3d 60 37 90 bd 0c 85 af 3d ca 98 b0 3d
       0.07599181 -0.07041812 0.085702986 0.08622892
0000a0 11 fa 95 3c ed 28 b8 bd 6a 07 8f bd b6 82 fe 3d
       0.018307718 -0.08992181 -0.06983836 0.12427275
0000b0 86 78 bd bd 9f 69 30 bc 74 d2 21 3d a0 1b d6 3d
       -0.09251504 -0.0107673695 0.039507344 0.10454488
0000c0 85 4d 96 3c 4c 86 c2 3d a4 22 0d 3e e2 1d 72 bc
       0.018347511 0.09498271 0.13782746 -0.014777632
0000d0 7b 52 f3 3c 47 6e 7c bd bf b4 e6 bc 2b 81 88 bd
       0.029702416 -0.061628606 -0.028162358 -0.06665262
0000e0 09 ce f3 3d be ab 46 bb 32 1a 00 bd f5 8e c0 bd
       0.119045325 -0.0030314769 -0.03127498 -0.09402267
0000f0 2e 39 f0 3d f7 12 10 3d d8 ce fd bb 8b f0 91 3a
       0.11729656 0.035174336 -0.007745605 0.001113431
000100 61 97 ab bd 8b fc d7 bc 29 16 c2 bd fc 85 42 3c
       -0.083784826 -0.026365539 -0.09476883 0.011872765
000110 94 38 2e 3d 19 ce b0 bd 13 c3 58 bc 24 b6 84 3d
       0.042534426 -0.0863306 -0.013230103 0.06480053
000120 e9 02 04 bc 1e 2e a3 bd 68 e2 98 bd 95 b9 1f 3d
       -0.008057334 -0.079677805 -0.074650586 0.038995344
000130 d5 97 b8 3d e7 a2 8c 3d 62 7a 67 3d 81 fc 30 bc
       0.09013335 0.06867009 0.056513198 -0.010802389
000140 3c 9e b3 3b 07 3a 6d bd 5a 2a 9d bd 51 4b 19 3c
       0.0054815095 -0.057916667 -0.076740935 0.009356336
000150 40 71 00 be f0 d2 58 3d 50 ce f6 37 d7 6f 9b 3d
       -0.12543201 0.05293554 2.9421557e-05 0.07589691
000160 6f 3c 39 3d 59 e2 e9 bd 60 6a b4 3d f4 9b 45 3d
       0.04522365 -0.114201255 0.08809352 0.04824443
000170 f7 16 89 3c a2 6d 88 bd 5c 07 db 3d ac 21 e1 3c
       0.016734583 -0.06661536 0.10694763 0.027481876
000180 2d 21 ba 3d 06 e5 0b bd 66 ae 8b 3d e1 50 d0 3b
       0.09088359 -0.03415396 0.06820373 0.0063572978
000190 1e 3b 0e bd e9 50 c1 bd 75 12 1b 3d 30 46 c2 bd
       -0.034724347 -0.094392605 0.0378594 -0.094860435
0001a0 1b 26 12 be b1 d5 40 bd 6d e4 17 bd b4 d0 c9 3d
       -0.14272349 -0.047078792 -0.03708308 0.0985426
0001b0 e3 6f 62 bc 26 e9 3c 3d d2 b0 8b 3b 2a 3a da bb
       -0.013820621 0.046120785 0.004263022 -0.0066597657
0001c0 d1 6d 40 bd 75 b1 66 3d 0d 10 dd bd c8 a1 0b 3b
       -0.04697973 0.05632158 -0.10794077 0.0021306146
0001d0 9e 7e e6 3c 65 72 2e 3d 69 bc 9d bd 23 f4 20 3d
       0.028136548 0.042589564 -0.07701952 0.039295327
0001e0 13 54 03 bd 45 fb a6 3c a8 68 48 3d fd d1 90 3c
       -0.0320626 0.020383487 0.048927933 0.017678255
0001f0 1f 04 85 bd a3 41 c0 bd 8d 5f 74 ba 7b 74 8d 3d
       -0.06494927 -0.09387519 -0.00093220995 0.069069825
000200 2b b1 7e bd 70 a7 f1 bd b8 47 93 bd e6 02 99 3c
       -0.06218068 -0.11799514 -0.07191414 0.01867814
000210 79 57 ab 3c fc e1 0e be c7 0a 79 bd d3 01 f5 3c
       0.020915734 -0.13953394 -0.060801294 0.029908096
000220 a1 41 b0 3d 69 7f c4 bd e3 b2 88 bd 5e 0b e3 3d
       0.08606268 -0.09594614 -0.06674745 0.110861525
000230 9d 5c f9 bd 69 9f 7a bd 35 65 9f bc 5a 24 a4 bb
       -0.12175868 -0.06118718 -0.019457439 -0.0050092163
000240 23 5a b6 bb 0b 84 92 bd c7 65 b6 3d 17 a7 ba 3d
       -0.0055649444 -0.071540914 0.08906131 0.09113901
000250 61 17 e7 3d e1 ab 47 3d d4 57 b6 3d 33 bb d5 3d
       0.11283756 0.0487479 0.08903471 0.10436096
000260 3e 37 04 3c ad 1b 6f 3d d5 de e5 bd 44 7b 00 be
       0.008069811 0.058376003 -0.112241425 -0.12547022
000270 b8 6f 6c bd 7d c6 b5 bd b7 45 00 be 28 93 72 3d
       -0.05772373 -0.08875749 -0.12526594 0.05922237
000280 6d 3f 6d bd e7 3e ae 3d e8 c2 4d bd b9 d8 20 bd
       -0.057921816 0.085080914 -0.050234705 -0.039269183
000290 94 e0 65 bc 6e 38 85 3c a8 c6 1a be 2d 87 77 bd
       -0.014030594 0.01626226 -0.15114844 -0.060431648
0002a0 07 d9 cd 3d c5 4e 92 3d 70 72 f5 3c 17 3d f6 3c
       0.1005116 0.0714393 0.029961795 0.030058427
0002b0 fc 29 9c bd 80 72 db bc ea 6a 94 3d cd e4 3b 3d
       -0.076251954 -0.026787996 0.07246955 0.0458725
0002c0 fe 54 1f 3d c4 92 75 bd be 57 24 bd 0c 40 de 3b
       0.038899414 -0.05995442 -0.04012274 0.0067825373
0002d0 0c 1a b6 3c ae 80 a1 bd 59 16 b6 3d ba 8c ac 3d
       0.022229217 -0.07885872 0.08890981 0.08425279
0002e0 56 3e 15 be c3 94 f1 3d 3c e9 0b 3d 3f 6c 04 be
       -0.1457456 0.11795952 0.034157977 -0.12931918
0002f0 1a c0 c4 bb 49 5c c0 bc 31 f7 6f 3d 33 a6 0b bd
       -0.0060043456 -0.023481505 0.05858535 -0.034094047
000300 27 17 84 3d c3 9e 0d bd 49 f4 81 3d 3c d6 8e bd
       0.064497285 -0.034575235 0.06345422 -0.06974456
000310 b3 a9 00 3d 34 8d d9 3d be a9 f5 bd 79 d7 88 3d
       0.031411838 0.106226355 -0.119952664 0.06681723
000320 62 52 02 3c fd 6c 9f bc e8 41 15 bd 14 ec f4 3d
       0.007954212 -0.01946115 -0.036439806 0.11959091
000330 b8 30 36 3c 70 84 1b bd be 39 01 be c3 1e 9b 3d
       0.011120014 -0.0379681 -0.12619683 0.07574227
000340 fa bc 75 3c 0c 76 96 bd de 6d 03 3d 55 b7 32 3d
       0.014998669 -0.073467344 0.0320872 0.04363187
000350 c1 e7 fa 3d e0 d5 45 3d 0c 07 32 bd 3e b8 47 3d
       0.12251235 0.04829967 -0.04346375 0.04875969
000360 e6 e6 7d 3d 74 a4 c2 bd b3 3d ca 3d ba 47 2d bd
       0.06198778 -0.09504023 0.098750494 -0.042304732
000370 2c b6 05 bd 6b 3f b0 3d 97 d2 9f 3d cb 97 7a bd
       -0.032644436 0.08605846 0.07803839 -0.061179917
000380 37 4d 8d bc 53 ae 99 3d a6 f6 39 3d 57 cf cb 3d
       -0.017248733 0.07503953 0.045401238 0.09951656
000390 e0 d3 08 be 0f a4 c0 3c 7a 98 e3 bc 06 f3 2d 3d
       -0.13362074 0.02351573 -0.027782667 0.042468093
0003a0 b3 78 88 bd 33 0d 5a bd e6 98 12 bd 6d 27 43 3c
       -0.066636465 -0.053235244 -0.035790347 0.011911255
0003b0 97 51 b0 3c e0 03 18 bd 2e 95 bb bd 0c 9f 1a bd
       0.02152328 -0.03711307 -0.09159313 -0.037749335
0003c0 8b b7 fd 3d a7 d5 8e bc 8f 25 84 3d 9c 9a ae bc
       0.12388524 -0.017435862 0.06452476 -0.021313958
0003d0 0c 6f a7 bd b8 7c 1c bd 59 e8 2e 3d 8a 1b 37 3b
       -0.081754774 -0.03820488 0.042702053 0.0027939999
0003e0 4a 01 6c bd 77 57 cf 3c f1 9d d7 bd d4 00 3f 3d
       -0.057618417 0.025310261 -0.10528172 0.04663165
0003f0 75 67 27 bd 9b 0b 9a bd 12 ed d2 3d f2 a4 c6 3d
       -0.04087015 -0.07521745 0.10299124 0.096994296

lstm.bias_ih_l0 f4 [400]
000000 9c 8b c6 3d ca bd 9a 3d cc 3c 3f bc 17 3d 5d 3e
       0.09694597 0.07555731 -0.01167221 0.21605335
000010 5f ae f9 bd e8 31 a1 3d b5 c8 22 3e d3 04 c8 3d
       -0.12191462 0.07870847 0.15896876 0.09766545
000020 9c 51 f6 3d 25 64 ed 3c d0 82 35 3e 5f 5c 77 bd
       0.120272845 0.028978417 0.17725682 -0.060390826
000030 fb e6 0b 3c f4 5b f7 3d 5a 1e 21 bd d6 4b 4e 3d
       0.008538957 0.120780855 -0.039335586 0.05036529
000040 9a b0 1f 3e da 06 15 3e f0 e7 e0 3d 58 6a 0c be
       0.15594712 0.14553395 0.109817386 -0.13712442
000050 a0 9e 23 3c 0a f6 8b 3d c4 f8 ac 3d 3e ca bd bd
       0.00998655 0.068340376 0.08445886 -0.0926709
000060 fd c4 c8 3c 72 a8 18 3d 64 78 05 3d 25 31 1f bd
       0.024507994 0.037270017 0.032585517 -0.038865227
000070 8d b2 96 3a 34 d1 24 bd f1 2e 3e 3e ae b2 8e 3d
       0.0011497304 -0.040238574 0.18572594 0.06967674
000080 e3 93 3e bb ae 48 83 bb 7b 45 ae 3d 9b 60 d0 3c
       -0.0029079847 -0.004006467 0.08509346 0.02543669
000090 c1 6b 1d 3e f5 eb 52 3e 08 ea 8f 3e 7b 5f 77 bd
       0.15373136 0.20597823 0.2810824 -0.06039379
0000a0 d0 37 6c 3e ec ee df 3d 98 1f 45 3d 70 26 4f 3d
       0.23068166 0.109342426 0.048125833 0.050573766
0000b0 f0 f4 0d 3d 0b e4 70 3e 98 a9 5f 3e a5 61 10 3e
       0.03465742 0.23524491 0.21842039 0.14099748
0000c0 79 61 15 3e 11 fb 2c 3d 27 6d a3 3d 32 c0 b4 3d
       0.14587964 0.042231623 0.079798035 0.08825721
0000d0 87 0d 00 3e 4f 06 5a 3d 14 c2 0d bd e6 18 1f 3e
       0.1250516 0.053228673 -0.034608915 0.15536842
0000e0 fb 18 b1 3c 18 d7 39 3c 1a 99 05 3c 02 7d 1d 3e
       0.021618357 0.011342786 0.008154178 0.15379718
0000f0 99 be 1d 3e 18 d9 0b bc d1 1b 4b 3d 85 4b 17 bd
       0.15404738 -0.008535646 0.049587075 -0.036937255
000100 65 26 2a bd 76 40 c9 3d e6 bf 80 3e e1 71 26 3c
       -0.041540522 0.09826748 0.25146407 0.010158987
000110 f4 c6 b4 3d 6a ae 70 bc 2a e4 43 3e 34 79 42 3e
       0.0882701 -0.014690021 0.19130006 0.18991548
000120 6d e9 47 bd 8d 3a 8e 3d 58 03 cd 3d e9 cc c8 bc
       -0.048806597 0.069447614 0.100104034 -0.024511771
000130 36 81 42 3d cc 18 12 3d 30 81 a5 3d 3d 45 eb 3d
       0.047486506 0.03566818 0.08081281 0.114878155
000140 63 4d e1 3d aa f6 38 3e b5 81 1d 3d 88 44 29 3e
       0.110010885 0.18062845 0.038453776 0.16530049
000150 83 3b 83 3d e4 92 85 3c 82 a9 1a 3e da 6b 7d bd
       0.06407835 0.016305394 0.15103725 -0.061870433
000160 00 07 d5 bd d5 f0 d5 3d 24 ac 2f 3d 5d fb 12 3c
       -0.10401726 0.10446326 0.042888775 0.0089710625
000170 ae 29 3c 3e a9 1e 9d 3d d8 1e eb 3d 5c 90 84 3d
       0.18375275 0.076718636 0.11480492 0.06472847
000180 12 6d d9 3d 3e 0e 29 bd f4 4b 26 3d 1d 6d 06 be
       0.10616507 -0.041273348 0.04059978 -0.13127561
000190 41 2e 34 bd cf 14 bd bc 67 6b 0b be 03 b8 13 bd
       -0.043989424 -0.023081211 -0.1361519 -0.03606416
0001a0 56 0a b5 bd d3 b6 d9 3c 0b 5c 99 3d f5 be 8d bd
       -0.08839862 0.026576435 0.07488259 -0.06921188
0001b0 76 68 85 3c 58 8e 8c bd 8c 6d 00 bd f0 14 08 3d
       0.016285162 -0.068630874 -0.031354472 0.033223093
0001c0 51 bb 89 3d 92 f1 0c bd 00 19 7b bd af 9d 1f be
       0.06725181 -0.034410067 -0.06130314 -0.15587495
0001d0 d4 43 b9 bd 5e f4 be bb 4d ab a3 3d f6 f7 76 bd
       -0.0904614 -0.0058274707 0.079916574 -0.060295068
0001e0 40 90 40 3d 84 d8 2d be 1d 7a 39 3d 58 78 e0 bd
       0.047012568 -0.16977125 0.045282472 -0.10960454
0001f0 bd d0 48 3d a5 60 99 bd 06 f0 28 bd 60 c9 c3 bd
       0.049027193 -0.074891366 -0.04124453 -0.095598936
000200 8a 9e 0c be fa 5a a0 bd cc 84 fe 3c 3a 6a c5 3c
       -0.13732353 -0.078298524 0.031069182 0.024098504
000210 5b dd 6f bd c2 fb 43 bc f5 56 41 bd 11 60 d7 bc
       -0.05856071 -0.011961879 -0.04720207 -0.026290925
000220 8a c9 80 3d 19 64 38 bd c6 e7 9a 3c 10 2f 90 3b
       0.062884405 -0.045017336 0.018909346 0.0044001415
000230 4f b0 a3 3d 83 a2 c4 bc 0e 41 76 3d 8f 4b c7 3c
       0.079926126 -0.024003273 0.060120635 0.024328021
000240 32 f7 b9 bd 69 2a 06 3d c8 2b d8 bd 49 1b 67 bd
       -0.09080352 0.03275529 -0.105552256 -0.056422506
000250 0f c8 af 3c 0c 76 6c 3d c8 31 60 bd 40 1d 61 bb
       0.0214577 0.057729766 -0.054734975 -0.003434971
000260 d1 6c 20 bd cc 51 65 3d cf 41 e7 3c 7a 89 8f 3b
       -0.039166275 0.05598621 0.028229622 0.004380402
000270 15 47 12 be 37 ec 80 3d d9 4f 38 bd e5 3f 6e bd
       -0.14284928 0.062950544 -0.044998024 -0.058166403
000280 a1 7c 94 bd 78 bc 86 bc ca 99 3f bd f4 37 b9 bd
       -0.072503336 -0.01644729 -0.046777524 -0.09043875
000290 ae 4d 60 3c 72 0d 5d bd 28 f8 ad 3d 97 8a 69 bd
       0.013690395 -0.0539679 0.08494598 -0.057016935
0002a0 89 2c 3e bd 5d 13 a7 bd 1c 5c 1b 3d b8 84 ee 3c
       -0.04642919 -0.0815799 0.03792964 0.02911602
0002b0 80 d6 73 3d ea 2e 6f 3d d5 92 58 bd 3c b6 81 bd
       0.059530735 0.05839435 -0.052874405 -0.063335866
0002c0 ea ed bf bd fd 1f 92 bd 1d e8 f7 bd 9c 70 80 bd
       -0.093715504 -0.071350075 -0.12104819 -0.062714785
0002d0 66 ef 0e bc 2e 45 6f bd 05 60 cd bd 8d e8 b2 3d
       -0.008724069 -0.058415584 -0.1002808 0.08735762
0002e0 17 58 a9 bd 45 ac 7d 3d e4 bc 31 bd 2b 04 6f bd
       -0.08268755 0.061931867 -0.04339303 -0.058353584
0002f0 e4 ae 2b 3d 91 a3 b4 3d 28 74 dc bc 3e 17 c8 bc
       0.041914836 0.0882026 -0.026910856 -0.024425145
000300 de ac 90 3d 37 33 5b bc 1e 44 5c bc 5d bd ad bc
       0.07064222 -0.01337891 -0.013443975 -0.02120846
000310 dc 06 17 bc 81 10 a9 bc 98 89 44 bb 3e 02 b7 bd
       -0.009217944 -0.020637752 -0.0029989239 -0.089359745
000320 88 9b f4 3c a6 0f c4 3d 82 d9 90 3d 2b fa 99 bb
       0.02985932 0.09573297 0.07072736 -0.004699012
000330 86 65 16 3d 6d 05 6c bb 4a 10 e0 3d 43 c0 aa bd
       0.036717914 -0.0036013976 0.10940607 -0.08337452
000340 ed b9 9b bd fc c7 a5 bd 43 df e7 bd c1 c8 15 3d
       -0.07603822 -0.080947846 -0.11321881 0.036568407
000350 6e 1d b6 bd 3e da 0a 3d d5 32 de 3d e8 b4 23 bd
       -0.08892332 0.03389954 0.10849539 -0.039967448
000360 bd de cb bc 41 37 98 bd cf a6 19 3d 78 1a b6 3c
       -0.024886483 -0.07432414 0.037512597 0.022229418
000370 15 5b 91 3d d7 a4 2e 3d 3d b2 14 3e 56 13 b2 bc
       0.07097451 0.042637672 0.14521118 -0.021737736
000380 c0 68 df 3d f0 31 0f bc 9f 1a 17 bd 2a 3d c5 bd
       0.10908651 -0.008739933 -0.036890622 -0.09630807
000390 33 72 80 3d 51 0d 4f bd d1 9f 4f bd da 85 62 3d
       0.06271782 -0.05054981 -0.050689522 0.055303432
0003a0 f3 18 12 bd bc e3 a3 3c 7e f7 9e bb a1 3c 94 bd
       -0.035668325 0.020006053 -0.0048512807 -0.072381265
0003b0 04 db 25 3d 4a b6 75 bd 10 77 20 bd 2d 31 49 3d
       0.040492073 -0.059988298 -0.039176047 0.049119163
0003c0 9e e5 bc bd 30 d9 05 bb c0 8a b6 bc eb a2 ef bd
       -0.092234835 -0.0020423643 -0.022282958 -0.11700996
0003d0 d7 db d0 bd 11 e9 d4 bd 16 80 99 3d 4d 0c 7f bd
       -0.10198181 -0.103960164 0.074951336 -0.06226759
0003e0 56 a3 29 3d ae 90 de 3c 66 68 a7 3c 53 22 7b bd
       0.041415535 0.027168598 0.020435523 -0.06131203
0003f0 d4 b2 b6 3d 57 46 02 bd 9b f8 bf bd 9c d5 c2 bd
       0.089208275 -0.031805363 -0.093735896 -0.09513399

lstm.bias_hh_l0 f4 [400]
000000 b1 9d ed 3d ad e6 12 3e 63 c4 7f 3d ac 3e 3f 3e
       0.11602343 0.14345808 0.06244315 0.18676251
000010 0d ea 1f bd 4b 65 90 3d 4b f2 f2 3d b2 69 ca 3d
       -0.039041568 0.0705057 0.1186262 0.09883441
000020 76 1d 64 3e 52 87 28 3e d2 45 03 3e 2c 2a 90 3d
       0.22276863 0.1645787 0.12819603 0.07039294
000030 18 cf d0 3d ac fa 02 3e d4 54 89 3c f3 2c db 3d
       0.1019575 0.12790936 0.016764082 0.10701933
000040 19 8e eb 3b 45 bc 0d bd f0 8d 28 3e 33 6c 18 be
       0.00718857 -0.034603376 0.16460395 -0.14885025
000050 4c 28 06 3e 01 a1 4c 3c df e8 93 3d b0 44 53 3a
       0.1310131 0.012489558 0.07222151 0.00080592465
000060 d0 8b cc 3d 3a 4d bb 3d 0f 52 c9 3d f3 82 4b 3d
       0.099876046 0.09145589 0.098301046 0.04968543
000070 91 c5 ee 3c 0f 9f c5 3c 96 93 9c 3d 9d d2 c2 3d
       0.029146941 0.024123697 0.07645337 0.095128275
000080 fd fc 22 3e 7a 29 84 3b 38 e8 2e 3e 00 26 5d bd
       0.1591682 0.0040332647 0.17080772 -0.053991318
000090 e2 e9 1b 3d 23 a2 fd 3d 73 19 f3 3d 04 ff b2 3c
       0.038064845 0.12384441 0.118700884 0.021850117
0000a0 db 46 f9 3d 91 e3 db 3d 01 3a 2c 3e 7a 64 23 3e
       0.12171718 0.10736764 0.16819002 0.15956298
0000b0 81 61 8f 3c 1a 75 bd 3d b3 79 a4 3d fb 12 dd 3d
       0.017502548 0.09250851 0.08031025 0.10794636
0000c0 9d a0 33 3e db 05 14 3e d0 fa 5c 3e c4 be 60 3d
       0.17541738 0.14455359 0.21580052 0.05486943
0000d0 1d 13 0d 3e 72 5b db bc d8 1f 1f 3e f8 60 06 3e
       0.13776822 -0.026777003 0.15539491 0.13122928
0000e0 b3 07 b2 bb 96 58 bf bd 31 b6 d6 bd d6 e8 c4 3d
       -0.0054330467 -0.09343068 -0.10483969 0.096147224
0000f0 30 ef 52 3e fa 33 65 3d 71 64 b4 3b 05 db d0 3d
       0.20599055 0.05595777 0.0055051376 0.10198025
000100 37 05 49 bc 1b e9 e6 3b 2c d4 4c 3e 61 04 8d bd
       -0.01226931 0.0070468313 0.20002812 -0.06885601
000110 e5 aa 4d 3d 41 2f 3e bd 5e ea 56 3e 27 78 4d 3e
       0.050211806 -0.046431784 0.20987841 0.20065366
000120 58 74 85 bd 71 2e 59 bd f4 03 04 3c a6 79 15 3d
       -0.065163314 -0.053022806 0.008057583 0.036492966
000130 6e 02 06 bd f7 43 1c 3d 96 9a 1d 3e df 9d a5 3d
       -0.03271716 0.038150754 0.15391001 0.08086752
000140 93 92 e4 3d 4e ec 33 3e fd 0b 32 3e a2 c8 f8 3d
       0.11160769 0.17570612 0.17387386 0.12147643
000150 61 00 aa 3d 76 49 5b 3d 6b 0a 83 3d 9c e3 b2 bd
       0.083008535 0.053536855 0.063984714 -0.08734819
000160 bb 91 4c 3d 2a 96 18 3e d6 c2 0d 3e 85 0f a5 bd
       0.049943667 0.14901033 0.13843855 -0.08059601
000170 b4 59 5b 3e db 23 29 3e f9 a8 5a 3c 0f b6 c8 bb
       0.21420938 0.16517584 0.01334595 -0.0061252187
000180 60 7b bc 3d d6 15 1a 3d 14 7f 51 bd f1 0e 7f 3a
       0.092032194 0.03761848 -0.05114658 0.00097297045
000190 e9 61 f8 bc 5d ce 01 3c d6 ce bf bd 0c 3c c8 bd
       -0.030320125 0.007922736 -0.09365623 -0.09777078
0001a0 ac c5 00 bd 97 9e 77 bd 6a d7 b7 3d 2b 6c dc bd
       -0.031438515 -0.060453977 0.08976634 -0.10762819
0001b0 4c 1b 43 bd 59 f0 84 3d ff 60 67 3d 8e 27 29 bb
       -0.047633454 0.06491155 0.056488987 -0.002581093
0001c0 65 f7 03 be e8 f7 7a 3d e5 cd eb bd 3d fc 17 be
       -0.12887342 0.061271578 -0.11513881 -0.14842315
0001d0 19 4c 78 bd 39 30 c5 bc 59 90 da bd 5d 39 73 3c
       -0.060619447 -0.024070846 -0.106720634 0.014845219
0001e0 3b 3b 42 3d c9 c8 33 be 96 be 57 bb 43 79 00 be
       0.047419768 -0.17557062 -0.0032919995 -0.12546258
0001f0 2d 78 9a 3d af e7 f3 3a 21 fe c1 bd c6 d1 fd bc
       0.07542453 0.0018608476 -0.09472299 -0.030983817
000200 e2 1e bc bd f6 a7 38 bd 6a 37 12 be 9b 11 0a bd
       -0.09185578 -0.045082055 -0.14278951 -0.033708196
000210 ed c1 9b bb 2d b1 5e 3d 4e 85 b9 3d d4 42 e6 bd
       -0.0047533424 0.054368187 0.09058629 -0.11243215
000220 1d 9b 95 3b 9d 51 ac bc df f3 9d bd 7f b1 03 bd
       0.00456561 -0.02103501 -0.0771253 -0.032151695
000230 b6 b2 b4 3d d3 a7 be 3c 63 88 49 3d cf 05 72 3d
       0.08823149 0.023273384 0.049202334 0.05908757
000240 a8 f8 50 3b fd e7 42 3c cb 0f 03 be f2 ae e1 3c
       0.0031886492 0.011896131 -0.12798993 0.02754924
000250 6c 74 cb 3c e4 79 ad bd 82 1b e7 3a b6 fa 31 bc
       0.024835788 -0.084705144 0.0017632099 -0.010862997
000260 7c 5a 77 bd 50 f5 f8 bd 43 a4 fe bd e3 64 87 bd
       -0.060389027 -0.12156165 -0.12433674 -0.066110395
000270 a5 f0 20 be a7 e6 c2 3c 96 72 f7 3b b0 ed 60 3d
       -0.15716799 0.023791624 0.0075515015 0.054914176
000280 bc 5b ab bd d9 1b e0 bd e4 aa 61 bd 0f 6c 4d bd
       -0.08367106 -0.109428115 -0.055094615 -0.05015188
000290 5e 04 fd bb 5f cf 07 bd e0 43 ac 3d fe 26 d0 bd
       -0.007721468 -0.03315675 0.08411384 -0.10163687
0002a0 3d eb b2 bd 04 2e 47 bc 5b 13 df bd cd fc 67 bc
       -0.087362744 -0.012156967 -0.10892364 -0.0141593935
0002b0 94 d2 95 bd 0a 7f ad 3d 7d 51 3a bd e6 c0 90 bd
       -0.07315555 0.084714964 -0.04548787 -0.070680425
0002c0 3c c1 9a 3c de 24 76 bc 6c 31 a9 bd 13 c1 12 be
       0.01889097 -0.015023438 -0.082613796 -0.14331464
0002d0 da 76 2c 3a e6 03 dd 3a a9 1d a5 bd 21 2b 9a 3d
       0.00065789896 0.0016862124 -0.08062298 0.075277574
0002e0 5d 72 70 bd b1 31 58 3c 16 b6 e9 bd cf d2 e5 bd
       -0.058702815 0.013195441 -0.11411683 -0.11221849
0002f0 65 d1 d9 bd 02 8d f5 3d 8d 4d ce bd 54 90 1c bd
       -0.10635642 0.11989786 -0.100733854 -0.03822358
000300 57 07 03 bd 58 85 0a bd c6 2e 8c 3d f7 14 2f bb
       -0.03198942 -0.033818573 0.06844859 -0.0026715377
000310 c4 8b 6a 3d 63 d9 b4 bd 2e 9f 94 3d 01 37 04 be
       0.057262197 -0.08830526 0.072569236 -0.12911607
000320 30 5a fd bb cd 2e ac 3d e5 bb 7d bc 73 d9 ae bd
       -0.0077316985 0.08407364 -0.015486692 -0.08537569
000330 be 0f 2a bd f6 8d a7 bd 14 db 00 3b 1c 9c 38 bc
       -0.04151892 -0.08181374 0.001966183 -0.011267688
000340 cb ef 9f 3c 6e 90 a9 bd 48 40 f8 bd c6 99 0a 3c
       0.019523522 -0.08279501 -0.12121636 0.008459514
000350 c2 eb 18 3d 7c 41 0c 3d 9f 86 b1 bb 5c 2f a3 3d
       0.03733421 0.03424214 -0.0054176594 0.079680175
000360 93 ba 45 3c 8e 8a b9 bc 52 0c 2f bc da be 3e bd
       0.012068409 -0.022649076 -0.01068409 -0.04656873
000370 d7 32 e5 bd 11 6b 77 bd 58 d2 c2 3b ab 9e 00 bd
       -0.111913376 -0.06040484 0.005945485 -0.031401318
000380 17 22 b1 3d 0e ed 32 3c 37 db 88 bc f8 f7 d5 bd
       0.0864908 0.010920776 -0.016706092 -0.10447687
000390 3f 28 28 3d ff b3 ed bc 6c dc 55 bd 29 ba fe bc
       0.041054007 -0.029016493 -0.052212164 -0.031094627
0003a0 78 f4 04 3d da e8 87 3d ba e6 0f 3e 56 49 be bd
       0.032459706 0.0663621 0.14052859 -0.092913315
0003b0 a5 36 a6 3c 60 ea a6 3d 08 1c 5e 3d e9 60 19 3b
       0.020289728 0.08150172 0.05422595 0.002340371
0003c0 ad 68 68 bd 59 06 32 3d 17 0b af 3d 64 02 85 bd
       -0.05674045 0.043463085 0.08547037 -0.064945966
0003d0 e9 ec b5 bc 55 9d 2c bd ad 14 bd bc 7b c0 a2 3d
       -0.022207694 -0.04214223 -0.023081148 0.07946869
0003e0 4c 1d b7 3c 67 77 ae bc 48 0b b4 bd 80 b4 bd bc
       0.022352837 -0.02129717 -0.08791214 -0.023157358
0003f0 01 7d b7 3d b1 f8 13 bd 81 7e 43 3d 70 a0 50 3c
       0.089593895 -0.036125842 0.047728065 0.012733564

lstm.weight_ih_l1 f4 [400, 100]
000000 73 60 be 3c 94 b9 30 3d a8 bd 09 3d e6 86 93 bd
       0.02323935 0.04314573 0.033628136 -0.07203464
000010 c1 c8 d1 3d 83 27 bd bd 54 1f 18 3e 61 70 4f 3d
       0.10243369 -0.09236052 0.148557 0.050644282
000020 47 64 b3 bc 8d 90 21 3e 46 87 df bc fd c6 74 bd
       -0.021898402 0.15777798 -0.027286183 -0.059760083
000030 62 02 b0 bc e3 05 1d bd 9c 7c 9c 3c 60 08 0f 3d
       -0.021485511 -0.038335692 0.019102387 0.034920096
000040 af 38 18 be f7 e8 3e bd 45 52 04 be b3 c0 38 3d
       -0.14865373 -0.04660889 -0.12922008 0.045105647
000050 cd 44 65 3d 23 e9 00 bd e2 25 24 bd 9d 17 7c 3d
       0.055973817 -0.031472337 -0.04007519 0.061545957
000060 1b 60 10 3d ac 11 a3 bd 58 68 ce 3d 18 ee 02 be
       0.035247903 -0.07962355 0.10078496 -0.12786138
000070 66 dc 08 3e 03 28 0d bc 7a a7 50 bb 96 5a 40 bd
       0.13365325 -0.008615497 -0.0031838105 -0.04696139
000080 2c 60 1a 3e 11 e8 dd 3c 30 09 84 bc 53 1f ec bc
       0.15075749 0.027088197 -0.016117662 -0.02882353
000090 c3 db 59 bd bc 59 1c bd 32 18 d7 3d 6a 33 34 bd
       -0.053188097 -0.038171515 0.10502662 -0.043994345
0000a0 ad e1 ff bd 9d 14 f7 3b 1b 92 14 be c6 79 09 3e
       -0.12494216 0.007540299 -0.1450886 0.13425359
0000b0 e7 6c 20 3d 9d 73 7a 3d b4 ba b4 3d cc 42 88 bd
       0.039166357 0.061145414 0.08824673 -0.066533655
0000c0 8c ea e2 3d e0 2f 4c 3c 6b 3c 08 3b 6e 21 1e 3d
       0.110798925 0.012462586 0.0020787965 0.0386061
0000d0 18 e6 d9 bc cb d2 0b 3e cd 37 08 be b3 7f 90 bc
       -0.026598975 0.1365463 -0.13302536 -0.017639017
0000e0 59 f6 f9 bb e2 a7 87 3d 20 62 94 bd 14 7a d8 3c
       -0.007628244 0.06623818 -0.07245278 0.026425399
0000f0 78 9c 8c bb a7 2b ad bc e9 6f 68 3b c3 dc e3 bc
       -0.0042911135 -0.02113898 0.0035467094 -0.027815228
000100 5b 6b f0 bc b1 8b 88 bb bd f3 bc bb 23 16 fc bc
       -0.029348066 -0.004167043 -0.0057663606 -0.030772274
000110 5d ae e0 3d 21 eb 2c bc 4d 86 df 3c ab dd 19 3d
       0.10970757 -0.010554106 0.02728572 0.037564915
000120 d1 56 fd 3b ce 7f 85 3d 62 9c 63 3a cc d2 a5 3c
       0.0077312966 0.065185174 0.00086826656 0.020242117
000130 fa ff f7 3d 2c 4e 82 bb 05 df d3 bd f7 3e 49 bc
       0.121093705 -0.003976604 -0.10345272 -0.012283078
000140 35 7a c6 3d 49 d3 fc bd 69 99 23 bd 49 09 76 bc
       0.09691278 -0.12344987 -0.039941225 -0.015016862
000150 dd 22 9e bc 98 06 00 3e 25 11 6f bc 58 a4 f3 bc
       -0.019303733 0.12502515 -0.01459149 -0.029741451
000160 1f a5 bc bd 5c ff 3e bd 8c 7f 41 bd d2 e5 76 bb
       -0.09211182 -0.04663025 -0.04724078 -0.0037673605
000170 95 5f a5 3d 60 3d eb bc 2f 54 dd 3d 3a 53 ad 3d
       0.080748715 -0.02871579 0.10807072 0.0846314
000180 80 e3 ad 3d 1e 8f 00 3e 86 69 1e bd 39 ac a6 bc
       0.08490658 0.12554595 -0.038674854 -0.020345794
000190 d9 e1 1d bd 3f c7 2b 3d 1f 3f de 3d 98 57 8d 3d
       -0.038545463 0.041938063 0.10851883 0.06901473
0001a0 fe 98 e6 3c 74 f6 34 bd a4 98 8c bd 7b f5 a7 3b
       0.028149124 -0.04418035 -0.068650514 0.005125699
0001b0 00 84 4d 3d ae 11 2e 3c 12 4f eb 3c 44 c7 c1 3c
       0.050174713 0.010624332 0.028724227 0.023654588
0001c0 d3 72 88 bc dc 3f c6 bd 57 21 c0 bc 5e 81 ea 3d
       -0.016656315 -0.09680149 -0.023453398 0.11450456
0001d0 b6 57 c9 3d 3b 77 4a bc 83 ef 66 3d b9 e5 41 bd
       0.09831183 -0.012357528 0.05638076 -0.04733822
0001e0 bd 14 5f 3c f5 de 3e 3d 1e ea ae bd 1a 2a 46 bd
       0.013615784 0.046599347 -0.08540748 -0.048379995
0001f0 96 9f 65 bd 4a 64 cf 3d ed db 67 3d 73 54 43 3d
       -0.056060396 0.101265505 0.056606222 0.04768796
000200 17 57 6e bd 4b c7 d7 bc 95 27 6f 3d 3d 9b e2 bd
       -0.058188524 -0.026340147 0.058387358 -0.110647656
000210 b8 d2 de bd d8 a0 03 3d fb 83 8c bd 34 a7 71 3d
       -0.10880035 0.032135814 -0.06861111 0.058997348
000220 47 25 22 bd a6 9c b5 bd 8e 02 7c 3d 50 de 27 bd
       -0.03958633 -0.08867769 0.061525874 -0.040983498
000230 29 40 12 bd bb ad 3f bd 10 46 cb 3d d9 3b 44 bc
       -0.03570572 -0.04679654 0.09925473 -0.011977159
000240 c7 aa 42 bd 2b ac 9a bd bd 71 8b 3c bc 3a 8b bc
       -0.047526147 -0.0755237 0.017022008 -0.01699578
000250 3e b5 84 bc 14 89 1a 3d 1c 3a 34 bd 87 da 81 3d
       -0.016199704 0.037728384 -0.04400073 0.06340509
000260 6d 8f 00 bd 5c 55 69 bd ae 08 be 3c be 34 d3 bc
       -0.03138678 -0.05696617 0.023197498 -0.025781985
000270 32 a4 b9 3d 0f 94 b0 bd 6e 64 fa bc 4a 8d b2 3b
       0.09064521 -0.0862199 -0.030565467 0.005448972
000280 24 88 b6 3b 3e 8f 0a 3c 06 85 bf 3c e7 85 09 bb
       0.0055704284 0.008457003 0.02337886 -0.0020984353
000290 a8 a1 4a 3d f0 0e 01 3c 26 72 a4 3d e3 00 26 bd
       0.049470574 0.0078770965 0.080295846 -0.04052819
0002a0 a2 33 87 bc a1 d6 29 bd 9a c9 8e 3c e0 39 92 bd
       -0.016504113 -0.04146445 0.017430115 -0.07139945
0002b0 db 3a 94 bd b6 ac b4 bd f7 c4 dd bc af d7 56 bd
       -0.07237788 -0.088220045 -0.02707146 -0.052451786
0002c0 a5 81 e1 bd 26 ae bb 3a 9f 19 aa bb ae 1c 2a bd
       -0.11011056 0.0014318868 -0.0051910426 -0.041531257
0002d0 40 55 00 bd d4 54 7d 3d 4e cf 32 3d 02 02 4f b8
       -0.0313313 0.061848477 0.043654732 -4.9354516e-05
0002e0 79 59 f7 bd 28 46 ee bd ac c9 ea bd 43 54 24 3a
       -0.120776124 -0.11634475 -0.11464247 0.00062686595
0002f0 fa 30 ea bc d7 d3 33 bd f6 55 b9 bc 07 6c a1 3b
       -0.028587807 -0.043903198 -0.022623997 0.004926208
000300 0a ba 7c 3c 20 e7 82 3c b4 f1 64 3d d0 a3 59 bd
       0.015425215 0.01597935 0.05589457 -0.05313474
000310 40 0e 30 bc 87 11 2d 3c b3 71 f5 3d 5b b2 20 3c
       -0.010745585 0.010563261 0.11984577 0.009808148
000320 0f f4 90 bd c4 81 1e bd e0 6a 89 3d 1e 88 0d 3b
       -0.070778005 -0.038697973 0.06709838 0.0021596025
000330 e3 5f b6 bd 2c 9f ee 3c 28 99 66 3c d3 7c d5 3c
       -0.08905008 0.029128633 0.014074601 0.026060497
000340 90 53 72 3c be 07 9b bd af 03 c0 bd c2 6d 7a bd
       0.014790431 -0.07569836 -0.093757026 -0.06113983
000350 41 de e2 bd 00 13 5a 3d cf 9d 8a bd 4c 71 b0 bd
       -0.11077548 0.053240776 -0.06768381 -0.0861536
000360 9a eb 8e 3c 40 d0 36 3d 51 b1 96 3d 7e 19 d3 3d
       0.017446328 0.044632196 0.07358039 0.103075966
000370 05 77 fd bd 33 cf d7 3d 0a 3d be 3b 89 bd 62 bd
       -0.12376217 0.10537567 0.0058056163 -0.055356536
000380 47 0c f2 3d 90 be f1 bb b5 34 8f 3d 77 02 a0 bc
       0.11818748 -0.007377453 0.06992475 -0.019532425
000390 2f 8c 95 bc 74 f8 b8 bc bd 17 e7 bd 07 08 a5 3a
       -0.018255321 -0.02257941 -0.112838246 0.0012590893
0003a0 3f 13 af bd 6c 32 b1 bc fb 9f f7 3d c9 46 e1 bd
       -0.08548593 -0.021630488 0.12091061 -0.10999829
0003b0 e2 47 f7 3b 5a 41 e1 bd ae 28 a0 bd 9b 7c 87 3d
       0.007546411 -0.10998793 -0.07820259 0.066155635
0003c0 1e 42 dc bd 34 35 b9 bd f8 85 ab bd ea 60 f5 3c
       -0.10754798 -0.09043351 -0.08375162 0.029953439
0003d0 d1 66 7c 3d d5 2b 7c bc c4 6b 68 bb c7 5f 64 bd
       0.06162149 -0.01539131 -0.0035464624 -0.055755403
0003e0 2e 59 3b 3d c8 16 85 bc 6f e3 b0 3d dd 43 3a bd
       0.045739345 -0.016246215 0.086371295 -0.045474876
0003f0 d5 65 1a bc 6b b7 9d bd d5 9a 84 3d 6b 64 57 bd
       -0.009423693 -0.07701 0.06474844 -0.052586

lstm.weight_hh_l1 f4 [400, 100]
000000 7e 24 3b 3d bd 25 c7 3d fe b3 9d 3d a7 a5 5e 3b
       0.0456891 0.09723995 0.077003464 0.0033973248
000010 6c 99 99 bd 9b 38 72 bd ba f4 58 bc bd 65 93 bc
       -0.07499966 -0.059136014 -0.013241941 -0.017992849
000020 00 47 ea 3b 31 14 1d 3d 8f 1f 10 be a3 79 c8 3d
       0.007149577 0.038349334 -0.14074539 0.09788825
000030 df 75 06 3e c1 dd bd 3d 40 dc b3 3d 5f 76 82 3a
       0.13130902 0.09270812 0.08782244 0.000995349
000040 ea 3a 6f 3d ad 92 80 3d 82 76 f9 bd 00 bc 48 3d
       0.058405794 0.06277976 -0.12180807 0.049007416
000050 ba 5b e7 3c 10 05 93 bd e4 02 e0 39 4a 0d 43 bd
       0.02824198 -0.071787 0.00042726763 -0.047620095
000060 ac f0 ac bd d2 b8 af 3d 3c c1 3e 3d d1 eb ef bc
       -0.08444342 0.085801736 0.046571 -0.02928725
000070 d3 75 c3 bd ce b2 b3 bd 94 6a 8c 3d 0f 85 8b 3d
       -0.095439576 -0.08774339 0.06856266 0.06812488
000080 d5 d5 ef 3c d6 bb be 3c ce a9 df 3d 40 72 d9 bd
       0.029276768 0.023282927 0.109210595 -0.106174946
000090 53 ef ce bc 21 55 1a 3d 9d ee a7 bd 3c 8b b7 3d
       -0.025260603 0.03767884 -0.08199809 0.08962104
0000a0 68 1e 85 3d 3d 45 ee bd 83 bb 8e 3d ea af fa 3d
       0.0649994 -0.116343 0.06969359 0.12240584
0000b0 ee 33 7d 3c ea b4 96 bd 2c 98 86 3c 61 93 c7 bd
       0.0154542755 -0.07358725 0.016429983 -0.09744907
0000c0 9e 17 b3 3c 48 ba 0f bd 60 0a 07 3d 12 31 2e 3c
       0.021861847 -0.03508976 0.03296888 0.010631816
0000d0 da 2a 07 3d f5 62 9b bd e5 13 3c bd 28 d2 a0 3d
       0.03299985 -0.07587234 -0.04591741 0.07852584
0000e0 1e ba ef bd dd ba 0a 3e 44 3d 8f ba 04 98 ea 3a
       -0.11705421 0.13547845 -0.0010928293 0.0017898087
0000f0 e3 91 d2 3c 7d 43 a7 3c d1 09 ff 3d a3 64 73 bd
       0.02570433 0.020417923 0.12453044 -0.059422147
000100 2e b7 b6 bb 58 50 34 3d 61 db c3 3d 6a 3e f6 bc
       -0.005576036 0.044021934 0.095633276 -0.030059058
000110 27 63 fc bd 93 23 88 3d 2b 64 2a bc b0 6a 1e 3c
       -0.12323599 0.0664741 -0.0103998585 0.009668991
000120 d0 c7 08 be 4c 68 80 3d 34 f4 ba 3d fc 3b 9f bd
       -0.13357472 0.06269893 0.09128609 -0.07775113
000130 9a 9a 40 bd 91 d0 cd 3d e6 80 31 3d f8 5c ca bc
       -0.04702244 0.100495465 0.043335818 -0.024702534
000140 29 56 00 be fe 36 85 3b 49 b7 b8 3d ec 6c 6c bd
       -0.12532867 0.0040653935 0.09019334 -0.057721063
000150 7a 9e cc bc 9e 80 8e bd 34 ad 62 3d 79 d8 4a 3d
       -0.024977911 -0.069581255 0.05534096 0.04952285
000160 48 09 19 bc 38 78 9e 3c b9 97 aa bd 63 7c af bc
       -0.009340592 0.019344434 -0.0832972 -0.021421617
000170 52 38 27 bd 72 5f c6 3d 06 a0 aa bc 0d bd 68 3d
       -0.040825196 0.096861735 -0.020828258 0.056820918
000180 36 3c 4a 3c 19 27 3b bd b4 7d 1b be e8 11 71 3c
       0.012343457 -0.045691583 -0.1518467 0.014713742
000190 3e 6f 8d 3d cb 49 30 bc 24 d7 07 be a9 89 6a 3b
       0.069059834 -0.010759781 -0.13265663 0.0035787618
0001a0 e0 02 ab bd 0d f0 8a 3c ef 0a c3 3d 25 ca 26 3d
       -0.08350158 0.016960168 0.0952357 0.040720124
0001b0 54 4a 95 bd c0 3f 17 bc c0 1f b8 bd 0b 2e fa bd
       -0.072895676 -0.009231508 -0.08990431 -0.12215813
0001c0 6d 0b 1c 3d 9e b2 c4 bd 23 95 8c bd 3e c4 47 3d
       0.038096834 -0.09604381 -0.06864383 0.048771136
0001d0 a1 8b 90 3d 49 87 ed bd 9b 7a e1 3c bd 58 70 bd
       0.07057882 -0.11598069 0.027524283 -0.058678377
0001e0 c1 63 57 bd d7 b9 80 bc bb 8a ec bd 18 ff 67 bc
       -0.052585367 -0.015713615 -0.11549898 -0.01415994
0001f0 e3 36 c2 bc 2f 40 29 3d 2d 09 a9 3d a7 d1 2b 3d
       -0.023707813 0.041320976 0.08253703 0.041947987
000200 8b ca 0c 3c f2 3c 2e bc ea aa 67 3d f0 ad e0 bd
       0.008593212 -0.010634648 0.05655948 -0.10970676
000210 2f 7d b1 bb 5f c8 9c bb 86 8d 30 3d 84 9e f0 ba
       -0.0054165344 -0.0047846283 0.043103717 -0.0018357788
000220 f6 f8 63 3a ad 38 df 3d 3a eb af bd e0 16 b6 3c
       0.0008696461 0.10899482 -0.08589788 0.022227705
000230 47 7b aa bc 5e 64 6b bc fe 51 bd bc 25 a8 b8 bd
       -0.020810736 -0.014367191 -0.023110386 -0.09016446
000240 91 5c 45 bd c8 7d cd 3d 77 79 a7 3d 5b 98 22 3d
       -0.04818398 0.100337565 0.081774645 0.03969608
000250 2b 4b a3 3d 43 5c 3f 3d 1e 52 b9 3d a4 c2 80 3c
       0.079733215 0.046718847 0.09048866 0.015717812
000260 e7 1e c4 bd 0f e2 95 3d 1e cb 46 bc 58 b0 f7 3c
       -0.09576207 0.07318508 -0.012133388 0.030235454
000270 41 d7 c4 3c 4e 33 a4 bc ac c1 7a 3d cd e5 0c 3e
       0.024028422 -0.020043995 0.061219856 0.13759537
000280 ae eb 72 3d 6f 31 09 3d 0f 2f 3e 3d 2d 4a cd bc
       0.059306793 0.03349441 0.046431597 -0.025059784
000290 52 59 d5 3d 0f 07 6e 3d 3c bb 88 39 14 ab ab bd
       0.10417427 0.0581122 0.00026079442 -0.0838224
0002a0 70 f9 02 bc 74 5c 81 bb c1 ff c3 3c 8c a4 a3 bd
       -0.007994041 -0.003947789 0.023925664 -0.07990369
0002b0 17 37 0e bd 13 04 c3 3d 06 f6 0e 3d f4 91 97 bd
       -0.034720507 0.095222615 0.034902595 -0.07400885
0002c0 68 92 82 3d 40 5e dc bd b2 75 fe 3b 86 7e 9d 3c
       0.06375581 -0.10760164 0.007765495 0.01922537
0002d0 10 cf a5 bc 35 7a 98 bd 02 fc bd bb d6 da fc bc
       -0.020240337 -0.07445184 -0.005797864 -0.030866068
0002e0 2d ed 8e bd bb 59 4b bd af eb cc 3d 24 a3 d5 bd
       -0.069788314 -0.04964612 0.100058906 -0.10431507
0002f0 3a df 94 3d 58 6b f3 3d eb 32 8c bd 4f 6e 5e bd
       0.072691396 0.118857086 -0.06845649 -0.054304417
000300 e8 0a 8d 3d 13 60 bf bd 2e cd fb bc 3e 71 9a 3c
       0.06886846 -0.093444966 -0.030737486 0.018852826
000310 ad 7e 55 3c be a4 81 bd 6b e5 fc 3c a4 af f8 bc
       0.01303069 -0.0633025 0.030871114 -0.03035719
000320 41 31 db 3c 02 f0 e7 bd 17 f9 40 bd fa 88 00 3d
       0.026756885 -0.11325075 -0.04711255 0.03138063
000330 f1 74 89 bd d6 61 73 3d a6 69 7a 3d ef fa ce bc
       -0.06711758 0.059419475 0.06113591 -0.025266139
000340 f8 10 63 bc f3 02 80 bd fc 27 89 3d 90 79 23 be
       -0.013859026 -0.062505625 0.066970795 -0.15964341
000350 5c 91 37 3d c1 45 09 3d 41 6f e2 3c 4f 12 96 bd
       0.04481636 0.033513788 0.02764094 -0.07327711
000360 eb 56 b8 3d d4 dc 5f bd df 76 39 3e d3 1f b8 3d
       0.09000953 -0.054653957 0.18111752 0.08990445
000370 8b 77 da 3c 6c 63 0b 3d 56 87 8e 3d eb 95 cc bd
       0.02666833 0.034030363 0.06959407 -0.09989532
000380 12 0f 8d 3d 88 81 1a bd 43 cf 02 3a 10 1a 40 3e
       0.0688764 -0.037721187 0.0004989991 0.18759942
000390 66 b0 fe 3d 53 98 61 bd 75 a3 26 bc 74 d4 a6 bd
       0.12435989 -0.05507691 -0.010170807 -0.08145991
0003a0 d0 9e 32 bb b4 a3 7c 3c 44 6d 2b 3d 8c a0 83 3d
       -0.0027255304 0.015419889 0.04185225 0.06427106
0003b0 ee da 04 be 2c e8 b4 3d ff ce 9b bd 15 74 b6 bd
       -0.1297414 0.08833346 -0.07607841 -0.0890886
0003c0 f1 a2 fe ba 87 4b 07 bd d9 13 36 3d d3 16 aa bd
       -0.0019427222 -0.033031013 0.044452522 -0.083051346
0003d0 ba b0 a3 bd 13 52 4c bd f1 8d 32 3d b9 80 15 3d
       -0.07992692 -0.04988296 0.043592397 0.036499713
0003e0 37 9f 2d 3d 72 b6 01 be a1 a8 2b bb e7 87 46 3d
       0.042388167 -0.12667254 -0.002619304 0.04846945
0003f0 47 f1 af 3d f7 ee 73 3d ea 48 93 bd 88 20 e0 bd
       0.08590942 0.059554067 -0.07191642 -0.10943705

lstm.bias_ih_l1 f4 [400]
000000 72 7b 48 3d 6c 60 9d 3d d1 58 ab 3d 58 e6 ba bd
       0.04894585 0.07684407 0.0836655 -0.09125966
000010 bd be 31 3e d3 4a 99 3c f2 19 df 3d 02 b8 29 3d
       0.17357917 0.018712437 0.108936206 0.04143525
000020 38 50 c7 3d 0f 8b 6d bd a4 16 3e 3d 90 43 e4 3d
       0.097320974 -0.057993945 0.04640831 0.11145699
000030 aa 96 4c bd 2f af bc 3c 8d 2e ac bd c5 a3 b9 bd
       -0.049948372 0.023032753 -0.08407316 -0.0906444
000040 d7 84 e2 3d 41 07 90 3d d3 07 42 3e e1 26 9f 3d
       0.110604934 0.070326336 0.18948297 0.077710874
000050 d7 9d 9e 3d 5b 77 3a 3d db f7 29 bc b6 2b 90 3c
       0.07744949 0.045523982 -0.010374035 0.017598968
000060 de f2 ad bd 06 50 9d 3d 40 0e 30 bd 2a bd 3d 3e
       -0.08493589 0.07681279 -0.04298234 0.18529192
000070 02 ba 0b 3e fd d9 e0 3d 0e d7 98 bd 61 27 e1 3d
       0.13645175 0.10979078 -0.074628934 0.10993839
000080 b2 ef 3f 3e 7c e8 5a 3d 35 f9 1c 3e 15 d9 96 3c
       0.1874378 0.05344437 0.1532944 0.01841406
000090 3f 23 fa 3d d2 62 0c bd e1 e6 6b 3b 51 e2 bb 3b
       0.12213754 -0.03427393 0.003599577 0.005733766
0000a0 8b 5b 04 3e a1 03 57 3d 28 a4 20 39 cd 46 b7 3b
       0.12925546 0.052493695 0.00015319942 0.005593157
0000b0 1f 2f df 3d d7 90 46 bd f5 60 73 3d 7a 60 74 bd
       0.108976595 -0.048477974 0.059418637 -0.05966232
0000c0 5f b6 96 bd 28 7b d4 3d 33 7d 27 3e bb 6d 01 3e
       -0.07359003 0.10375053 0.16356353 0.12639515
0000d0 c3 5c c3 bd d3 4d 99 bd 7f 45 7d bb f8 aa b9 3d
       -0.09539177 -0.07485547 -0.003864616 0.09065813
0000e0 e7 8a 94 bd 1b ea 1b 3e 95 11 ad 3d ac 80 82 3d
       -0.07253056 0.15226023 0.08450619 0.063721985
0000f0 41 d4 56 3e fd e1 67 bd 7c 70 30 3d b3 ef 40 3e
       0.20979406 -0.056612004 0.043076023 0.18841438
000100 95 fd a4 3d bd f3 7d bd d4 95 87 bc 44 d1 11 3e
       0.080561794 -0.062000025 -0.016550936 0.14239985
000110 fb df 48 3e 9c 2f 41 bd 92 58 c6 bd a8 9c 73 bd
       0.19616692 -0.047164544 -0.09684862 -0.05947557
000120 97 e7 d9 bc 0d 8d 09 3e d1 c8 1a bd b0 fb 77 bd
       -0.026599688 0.13432713 -0.03778917 -0.060542762
000130 11 03 ae bb 96 6e 1c 3e 0c a9 ca 3d ac 15 00 3e
       -0.005310424 0.1527656 0.098955244 0.12508267
000140 e9 df 4a bd a7 a1 09 3e f0 ac 27 3d 22 53 0a 3e
       -0.049529944 0.13440572 0.04093641 0.13508275
000150 97 c2 1e 3e 60 3e a6 3c 33 6f d7 3c 82 08 4a 3e
       0.15503918 0.020293415 0.026298141 0.19729808
000160 b4 be 97 3d 80 79 9f 3d 59 3a 6e bd d5 7c 3d 3e
       0.074094206 0.07786846 -0.058161113 0.18504651
000170 43 45 93 bc 58 e4 d5 3d cd bc 0e bc 36 35 41 3e
       -0.017977362 0.10443944 -0.008712006 0.18867955
000180 07 b3 a2 3d 54 8c f0 3d 5b fa 8f 3d c7 8a b3 3d
       0.07944303 0.117455155 0.070301734 0.08766704
000190 05 9b a0 bd 70 b3 d8 bc dc 8d 2e bd 82 02 79 3c
       -0.07842068 -0.02645275 -0.042615756 0.015198352
0001a0 08 d0 fd bc 43 07 ec bd 28 cf 96 3d 5b 56 21 3d
       -0.030982986 -0.115248226 0.07363731 0.039388996
0001b0 86 b4 35 bd 62 b4 a6 bd aa 43 12 3b d7 82 61 3c
       -0.044361614 -0.08139874 0.0022318163 0.013764105
0001c0 61 63 38 be 9f 98 b9 bd ad 37 e8 bd fa ee 0d be
       -0.1800666 -0.09062313 -0.11338744 -0.13860694
0001d0 de c3 0e 3d 3d e4 f4 bd e8 cd 29 bd 06 f6 1f 3d
       0.034854762 -0.119575955 -0.041456133 0.039052986
0001e0 47 33 b3 3c 98 ef 89 3d 01 c0 d5 bd ad ed 83 bd
       0.021875037 0.06735152 -0.104370125 -0.064418174
0001f0 fd 05 bc bc d3 74 73 3d ce a3 69 3c 59 e6 3c 3d
       -0.022952074 0.059437584 0.0142602455 0.046118114
000200 e7 26 9d bd a6 93 ad 3c ba 55 05 3d 5b 78 93 3c
       -0.07673436 0.021188568 0.03255246 0.018001726
000210 7c 5f f4 3d 8f 68 96 bd 8c 63 33 3d d9 97 bb 3d
       0.11932275 -0.07344162 0.043796107 0.09159822
000220 ca da 70 bd 59 c6 d7 bd 68 c5 43 3b 62 bc 8a bb
       -0.058802404 -0.10535879 0.0029872302 -0.0042338828
000230 8c d7 23 bc d5 b1 1b 3c 91 c8 cf 3c 82 74 8a bd
       -0.010000121 0.009502848 0.025364192 -0.06760503
000240 0a 0c 09 bd 40 c3 fa bd 91 de 2f bd 41 ff ef 3c
       -0.033458747 -0.12244272 -0.042936865 0.02929652
000250 e0 4c 08 be e9 f3 a4 bd 8b 01 b1 3d 1d 9f 41 3c
       -0.13310575 -0.08054335 0.086428724 0.011817721
000260 db 7d 21 3d 03 39 3c bd 59 4b 81 bd 2a 51 39 bd
       0.039426666 -0.045952808 -0.063131995 -0.04524342
000270 86 8f 6b 3c f6 2f e9 3d 65 5e 87 3d 26 dc 04 be
       0.01437748 0.11386101 0.06609801 -0.12974605
000280 b0 04 74 3d 08 50 8a 3d 94 82 d3 bc 96 7f e6 3d
       0.059574783 0.06753546 -0.0258191 0.11254804
000290 1f 43 cb 3b 86 8c de bd d7 88 00 be 27 d4 e9 bd
       0.00620307 -0.108666465 -0.125522 -0.11417418
0002a0 c5 f6 6f bd 5a 73 81 bd 1f 15 10 bb 30 2c 8f 3c
       -0.058584947 -0.0632083 -0.0021985245 0.017477125
0002b0 49 5b 77 3d 0e 07 b5 bd 06 4c d7 bd 8e 9b d5 bc
       0.06038979 -0.08839236 -0.10512547 -0.02607515
0002c0 12 21 15 be 96 ae d3 3d d4 ce 76 3c 87 2a 10 bd
       -0.14563397 0.10336034 0.01506396 -0.035196807
0002d0 d3 02 61 3c d1 86 74 bd 6a 4c 30 bc 67 84 95 bd
       0.0137335835 -0.059698883 -0.010760406 -0.07300644
0002e0 9b 60 aa bc a4 91 fe 3c 25 fe f0 3d 1c 72 41 3e
       -0.020798018 0.031075306 0.11767224 0.18891186
0002f0 4d 50 5c 3b 6a 9b a9 3d 3b f0 3a 3d 55 65 ff 3d
       0.00336172 0.08281596 0.045639258 0.124704994
000300 7a ec 98 3c e1 7e d6 bd c1 31 8f 3d 67 79 8a 3d
       0.018667448 -0.10473419 0.06991912 0.06761437
000310 6d 9a 8b bd 83 02 1b be 07 db a2 bc cd ef 83 bd
       -0.06816564 -0.15137677 -0.019879831 -0.06442223
000320 1f c6 bd bb 99 fe 9b bd fe 21 89 bd 57 de 26 3c
       -0.00579144 -0.0761692 -0.066959366 0.010184846
000330 62 ee 41 3d 7f c0 2f bc 7b dc 86 3c 6b b8 13 3e
       0.04734648 -0.010727047 0.016462555 0.14425819
000340 13 40 c9 3c 1d b0 83 bc 24 fc 0f 3d a0 c7 9e bb
       0.024566686 -0.016075188 0.03515257 -0.0048455745
000350 c1 49 f2 3d f6 5e a0 3c b7 d6 1d 3d 5e 83 04 3e
       0.11830474 0.01957653 0.038534846 0.12940738
000360 dc c5 c6 3d 4d 9b 13 3d 69 75 00 be 6a 24 32 bc
       0.097057074 0.03603678 -0.12544788 -0.01087294
000370 f4 9d 7a bc 94 c3 15 3d d8 fd 2d bd a8 df 63 bd
       -0.015296448 0.03656347 -0.042478412 -0.055633217
000380 a9 7e db bd 5c 14 b8 bd 22 ed 55 bc ec 8d b2 bd
       -0.10717518 -0.08988258 -0.013057025 -0.08718476
000390 e2 07 70 bd 52 dd ae 3d 53 bf e4 bd 2e 66 ba 3d
       -0.058601268 0.08538307 -0.11169305 0.091015205
0003a0 a7 96 93 3d 35 65 91 3d a0 e5 98 bd 73 70 a0 3d
       0.07206469 0.07099382 -0.074656725 0.07833948
0003b0 51 3e 82 3d f0 49 95 bd 70 de b9 3d bc c5 b6 bd
       0.06359542 -0.07289493 0.0907563 -0.089244336
0003c0 09 75 90 3d 97 97 de 3d b8 2c 1f 3d 85 20 8e bb
       0.07053573 0.10868757 0.038861006 -0.0043373727
0003d0 df a0 2d 3d 92 4d 6e bd e2 ab d4 3c e3 d6 05 3d
       0.042389747 -0.058179446 0.025960866 0.032675635
0003e0 38 2a bc bd a2 de a6 3d d6 cc 2c bc c6 70 a7 bd
       -0.0918774 0.081479326 -0.010546884 -0.08175807
0003f0 7f a1 9b bd 00 89 d4 3d ac b4 0d 3d e2 b5 83 3d
       -0.07599162 0.10377693 0.03459613 0.06431176
